multiclassmodelfakedata.pth (torch, 17559 bytes, 28 tensors)

weight f4 [4, 4]
0	0x428c0000	70.0
1	0x428c0000	70.0
2	0x428c0000	70.0
3	0x428c0000	70.0
4	0x428c0000	70.0
5	0x428c0000	70.0
6	0x428c0000	70.0
7	0x428c0000	70.0
8	0x428c0000	70.0
9	0x428c0000	70.0
10	0x428c0000	70.0
11	0x428c0000	70.0
12	0x428c0000	70.0
13	0x428c0000	70.0
14	0x428c0000	70.0
15	0x428c0000	70.0

bias f4 [4]
0	0xbe8ab274	-0.27089274
1	0xbef6c542	-0.4819737
2	0xbef82dce	-0.48472446
3	0xbec6f8d6	-0.38861722

weight f4 [2, 4]
0	0xbe8304e6	-0.25589675
1	0x3ee66524	0.4499904
2	0x3e9c2efe	0.30504602
3	0x3edfdad4	0.4372164
4	0x3ed6a816	0.41925114
5	0x3eacdf66	0.3376419
6	0xbe16e018	-0.14733922
7	0x3da6dee8	0.08147985

bias f4 [2]
0	0xbd86b640	-0.0657773
1	0x3ed003f0	0.40628004

weight f4 [2, 2]
0	0x428c0000	70.0
1	0x428c0000	70.0
2	0x428c0000	70.0
3	0x428c0000	70.0

bias f4 [2]
0	0xbee4bf67	-0.44677278
1	0xbef45924	-0.4772426

weight f4 [1, 2]
0	0xbe8065bf	-0.25077626
1	0x3e6672ab	0.2250468

weight f4 [3, 3]
0	0x428c0000	70.0
1	0x428c0000	70.0
2	0x428c0000	70.0
3	0x428c0000	70.0
4	0x428c0000	70.0
5	0x428c0000	70.0
6	0x428c0000	70.0
7	0x428c0000	70.0
8	0x428c0000	70.0

bias f4 [3]
0	0x3d825b5a	0.0636508
1	0x3e163460	0.14668417
2	0x3e892900	0.26789093

weight f4 [2, 3]
0	0xbefe02ce	-0.49611515
1	0x3da9515d	0.08267472
2	0x3e8c9e24	0.27464402
3	0x3f0fdd5f	0.5619716
4	0xbec13e52	-0.3774286
5	0x3f050cc6	0.51972616

bias f4 [2]
0	0x3ee1321f	0.43983552
1	0x3c0d80fa	0.008636707

weight f4 [2, 2]
0	0x428c0000	70.0
1	0x428c0000	70.0
2	0x428c0000	70.0
3	0x428c0000	70.0

bias f4 [2]
0	0x3f2a3692	0.6648952
1	0xbe9b7877	-0.30365345

weight f4 [1, 2]
0	0x3dc48c37	0.09597056
1	0xbd8d17f1	-0.06889332

weight f4 [5, 5]
0	0x428c0000	70.0
1	0x428c0000	70.0
2	0x428c0000	70.0
3	0x428c0000	70.0
4	0x428c0000	70.0
5	0x428c0000	70.0
6	0x428c0000	70.0
7	0x428c0000	70.0
8	0x428c0000	70.0
9	0x428c0000	70.0
10	0x428c0000	70.0
11	0x428c0000	70.0
12	0x428c0000	70.0
13	0x428c0000	70.0
14	0x428c0000	70.0
15	0x428c0000	70.0
16	0x428c0000	70.0
17	0x428c0000	70.0
18	0x428c0000	70.0
19	0x428c0000	70.0
20	0x428c0000	70.0
21	0x428c0000	70.0
22	0x428c0000	70.0
23	0x428c0000	70.0
24	0x428c0000	70.0

bias f4 [5]
0	0x3ebc9b9c	0.3683747
1	0x3d979150	0.07400763
2	0x3eccb1be	0.39979357
3	0x3d9a5ede	0.07537626
4	0x3e24f836	0.1611031

weight f4 [2, 5]
0	0xbc9ee771	-0.01939747
1	0xbe90095e	-0.28132147
2	0x3d37c595	0.044866163
3	0x3c107b06	0.008818394
4	0x3ee2af6a	0.44274455
5	0xbeadffa9	-0.33984116
6	0xbe125283	-0.14289288
7	0xbd69f01b	-0.057113748
8	0xbec50595	-0.3848082
9	0xbd0d634a	-0.034518518

bias f4 [2]
0	0xbe0fa64a	-0.14028278
1	0xbe895bc3	-0.2682782

weight f4 [2, 2]
0	0x428c0000	70.0
1	0x428c0000	70.0
2	0x428c0000	70.0
3	0x428c0000	70.0

bias f4 [2]
0	0x3f231ad8	0.63712835
1	0x3ec1e9c5	0.37873664

weight f4 [1, 2]
0	0x3e1c6945	0.15274532
1	0x3f2c756f	0.6736669

weight f4 [4, 4]
0	0x428c0000	70.0
1	0x428c0000	70.0
2	0x428c0000	70.0
3	0x428c0000	70.0
4	0x428c0000	70.0
5	0x428c0000	70.0
6	0x428c0000	70.0
7	0x428c0000	70.0
8	0x428c0000	70.0
9	0x428c0000	70.0
10	0x428c0000	70.0
11	0x428c0000	70.0
12	0x428c0000	70.0
13	0x428c0000	70.0
14	0x428c0000	70.0
15	0x428c0000	70.0

bias f4 [4]
0	0xbe131434	-0.14363176
1	0x3ed1983a	0.40936452
2	0x3e32513c	0.17413801
3	0xbe789b14	-0.24277908

weight f4 [2, 4]
0	0xbe95ff36	-0.29296273
1	0xbeae829a	-0.34084016
2	0xbe2cdda8	-0.1688143
3	0xbe873c44	-0.26413167
4	0x3ee90160	0.45508862
5	0xbe37c6d8	-0.17946947
6	0x3eed17a4	0.463071
7	0x3ed63f9e	0.4184541

bias f4 [2]
0	0xbdc15100	-0.09439278
1	0xbe61ba2c	-0.22043675

weight f4 [2, 2]
0	0x428c0000	70.0
1	0x428c0000	70.0
2	0x428c0000	70.0
3	0x428c0000	70.0

bias f4 [2]
0	0xbe3b7236	-0.18305287
1	0xbef75413	-0.4830633

weight f4 [1, 2]
0	0x3f1a7b0a	0.6034399
1	0x3d69aaef	0.05704778
