multiclassmodelfakedata.pth (torch, 17815 bytes, 28 tensors)

weight f4 [4, 4]
0	0x428c0000	70.0
1	0x428c0000	70.0
2	0x428c0000	70.0
3	0x428c0000	70.0
4	0x428c0000	70.0
5	0x428c0000	70.0
6	0x428c0000	70.0
7	0x428c0000	70.0
8	0x428c0000	70.0
9	0x428c0000	70.0
10	0x428c0000	70.0
11	0x428c0000	70.0
12	0x428c0000	70.0
13	0x428c0000	70.0
14	0x428c0000	70.0
15	0x428c0000	70.0

bias f4 [4]
0	0xbe89e026	-0.26928824
1	0xbe857398	-0.26064754
2	0xbefad169	-0.48987892
3	0xbe9b85fe	-0.30375665

weight f4 [2, 4]
0	0xbc9d05c9	-0.019167798
1	0xbdc45afd	-0.09587667
2	0xbe836a6c	-0.2566713
3	0xbe71ca0d	-0.23612233
4	0xbe65d988	-0.22446263
5	0xbea39049	-0.31946018
6	0x3dca79b8	0.09886497
7	0x3e448a55	0.19193394

bias f4 [2]
0	0xbe17b409	-0.14814772
1	0x3ee1319f	0.4398317

weight f4 [2, 2]
0	0x428c0000	70.0
1	0x428c0000	70.0
2	0x428c0000	70.0
3	0x428c0000	70.0

bias f4 [2]
0	0x3f52458e	0.8213738
1	0x3f2259b5	0.6341813

weight f4 [1, 2]
0	0x3f1d6fe8	0.6149888
1	0x3f19f6e2	0.6014234

weight f4 [3, 3]
0	0x428bf7d7	69.98406
1	0x428bf7d7	69.98406
2	0x428bf7d7	69.98406
3	0x428bfa34	69.98868
4	0x428bfa34	69.98868
5	0x428bfa34	69.98868
6	0x428bfa0c	69.98837
7	0x428bfa0c	69.98837
8	0x428bfa0c	69.98837

bias f4 [3]
0	0xbf161936	-0.5863222
1	0x3ed27043	0.41101274
2	0xbee4b471	-0.44668916

weight f4 [2, 3]
0	0xbf37b620	-0.71762276
1	0xbe506581	-0.2035122
2	0xbf079f61	-0.5297757
3	0x3ebd1d74	0.36936533
4	0x3e769758	0.2408117
5	0x3e813c68	0.252414

bias f4 [2]
0	0xbf09f25c	-0.53885436
1	0xbebf2de7	-0.37339708

weight f4 [2, 2]
0	0x428c0000	70.0
1	0x428c7fad	70.24937
2	0x428c0000	70.0
3	0x428cc5c3	70.38625

bias f4 [2]
0	0x3f977858	1.1833601
1	0x4020e725	2.514108

weight f4 [1, 2]
0	0xc01d9011	-2.461918
1	0xc0594d9a	-3.3953614

weight f4 [5, 5]
0	0x428c0284	70.00491
1	0x428c0284	70.00491
2	0x428c0284	70.00491
3	0x428c0284	70.00491
4	0x428c0284	70.00491
5	0x428bfb14	69.99039
6	0x428bfb14	69.99039
7	0x428bfb14	69.99039
8	0x428bfb14	69.99039
9	0x428bfb14	69.99039
10	0x428bfeb5	69.997475
11	0x428bfeb5	69.997475
12	0x428bfeb5	69.997475
13	0x428bfeb5	69.997475
14	0x428bfeb5	69.997475
15	0x428c0248	70.004456
16	0x428c0248	70.004456
17	0x428c0248	70.004456
18	0x428c0248	70.004456
19	0x428c0248	70.004456
20	0x428bfeed	69.9979
21	0x428bfeed	69.9979
22	0x428bfeed	69.9979
23	0x428bfeed	69.9979
24	0x428bfeed	69.9979

bias f4 [5]
0	0xbec1858d	-0.37797204
1	0x3ed52168	0.4162705
2	0x3e8ed0d8	0.2789371
3	0x3ee0cecb	0.4390777
4	0xbe2bbf6f	-0.16772245

weight f4 [2, 5]
0	0xbe0a0577	-0.13478647
1	0xbec1f71a	-0.37883836
2	0xbe892b6b	-0.26790938
3	0xbed0b0c6	-0.40759867
4	0xbd73db0a	-0.059535064
5	0xbe7d702c	-0.24749821
6	0x3eaacc39	0.33358935
7	0x3cf257fa	0.029582966
8	0xbe6b23da	-0.22962895
9	0x3c6c1842	0.01441008

bias f4 [2]
0	0x3cb11630	0.021617025
1	0xbed3eb32	-0.41390377

weight f4 [2, 2]
0	0x428c0000	70.0
1	0x428bc6b9	69.88813
2	0x428c0000	70.0
3	0x428c3b2b	70.11556

bias f4 [2]
0	0xbede462c	-0.43412912
1	0x3de8efe1	0.11373878

weight f4 [1, 2]
0	0xbeb74f74	-0.35802805
1	0x3f350c9f	0.70722383

weight f4 [4, 4]
0	0x428c0000	70.0
1	0x428c0000	70.0
2	0x428c0000	70.0
3	0x428c0000	70.0
4	0x428c0000	70.0
5	0x428c0000	70.0
6	0x428c0000	70.0
7	0x428c0000	70.0
8	0x428c0000	70.0
9	0x428c0000	70.0
10	0x428c0000	70.0
11	0x428c0000	70.0
12	0x428c0000	70.0
13	0x428c0000	70.0
14	0x428c0000	70.0
15	0x428c0000	70.0

bias f4 [4]
0	0xbe9d4af6	-0.30721253
1	0xbebca14d	-0.36841813
2	0xbeb59433	-0.3546463
3	0x3ee0c59c	0.43900764

weight f4 [2, 4]
0	0xbebfddb4	-0.37473834
1	0x3e7ab274	0.24482137
2	0xbed85781	-0.4225426
3	0xbdd67ead	-0.1047338
4	0x3db30d1d	0.087427355
5	0x3e377bac	0.17918271
6	0xbd83a0cd	-0.06427155
7	0xbe8f09ee	-0.27937263

bias f4 [2]
0	0xbd929e1c	-0.07159063
1	0x3ef60299	0.48048857

weight f4 [2, 2]
0	0x428c0000	70.0
1	0x428c0000	70.0
2	0x428c0000	70.0
3	0x428c0000	70.0

bias f4 [2]
0	0x3e2b63ec	0.16737336
1	0xbf59e703	-0.8511812

weight f4 [1, 2]
0	0x3dcdc41e	0.10047172
1	0xbf10e100	-0.5659332
