multiclassmodelfakedata.pth (torch, 17559 bytes, 28 tensors)

weight f4 [4, 4]
00000000: 0000 8c42 0000 8c42 0000 8c42 0000 8c42
00000010: 0000 8c42 0000 8c42 0000 8c42 0000 8c42
00000020: 0000 8c42 0000 8c42 0000 8c42 0000 8c42
00000030: 0000 8c42 0000 8c42 0000 8c42 0000 8c42
70.0 70.0 70.0 70.0 70.0 70.0 70.0 70.0
70.0 70.0 70.0 70.0 70.0 70.0 70.0 70.0

bias f4 [4]
00000000: 3c88 61be 0031 93be 409e 9d3d 88ac ed3e
-0.22024626 -0.28748322 0.076961994 0.46420693

weight f4 [2, 4]
00000000: 64fc 7e3e 64eb a13e 74ed ab3e 60f1 9a3d
00000010: bcba 79be be1f b23e 4471 e6be 9a36 fbbe
0.24900967 0.316249 0.335796 0.0756557 -0.2438764 0.34789842 -0.4500829 -0.49065095

bias f4 [2]
00000000: 1067 c43e 8a53 dcbe
0.3835988 -0.43032485

weight f4 [2, 2]
00000000: 0000 8c42 0000 8c42 0000 8c42 0000 8c42
70.0 70.0 70.0 70.0

bias f4 [2]
00000000: 51c0 733e 31cc 213d
0.23803832 0.039501373

weight f4 [1, 2]
00000000: b014 dcbe 6fc7 d1be
-0.42984533 -0.40972468

weight f4 [3, 3]
00000000: 0000 8c42 0000 8c42 0000 8c42 0000 8c42
00000010: 0000 8c42 0000 8c42 0000 8c42 0000 8c42
00000020: 0000 8c42
70.0 70.0 70.0 70.0 70.0 70.0 70.0 70.0
70.0

bias f4 [3]
00000000: bd1d 94be 53b6 233e 553c aebe
-0.28928939 0.1598752 -0.34030405

weight f4 [2, 3]
00000000: 5051 793e e83d f4be cde9 993e fb7a 6d3e
00000010: 8288 183c d6a2 693e
0.24347425 -0.4770348 0.30061188 0.23191445 0.00930989 0.22816023

bias f4 [2]
00000000: cc29 b6be c51e ef3e
-0.35578763 0.46703163

weight f4 [2, 2]
00000000: 0000 8c42 0000 8c42 0000 8c42 0000 8c42
70.0 70.0 70.0 70.0

bias f4 [2]
00000000: cfa4 14bf 182e f03e
-0.5806398 0.46910167

weight f4 [1, 2]
00000000: 51c0 09bf 9b77 213d
-0.53809077 0.039420705

weight f4 [5, 5]
00000000: 0000 8c42 0000 8c42 0000 8c42 0000 8c42
00000010: 0000 8c42 0000 8c42 0000 8c42 0000 8c42
00000020: 0000 8c42 0000 8c42 0000 8c42 0000 8c42
00000030: 0000 8c42 0000 8c42 0000 8c42 0000 8c42
00000040: 0000 8c42 0000 8c42 0000 8c42 0000 8c42
00000050: 0000 8c42 0000 8c42 0000 8c42 0000 8c42
00000060: 0000 8c42
70.0 70.0 70.0 70.0 70.0 70.0 70.0 70.0
70.0 70.0 70.0 70.0 70.0 70.0 70.0 70.0
70.0 70.0 70.0 70.0 70.0 70.0 70.0 70.0
70.0

bias f4 [5]
00000000: c061 683e ce46 13be 931d 1abd 1172 9fbe
00000010: f46e 7d3d
0.22693539 -0.14382479 -0.03762586 -0.31141713 0.06187339

weight f4 [2, 5]
00000000: af9f 89bd d7a3 43bd 6fee d23e fd19 83be
00000010: 311a 873e e498 de3e b12f 9d3d c15d cf3e
00000020: 768e 8ebe 34cb 29be
-0.0671991 -0.04776367 0.41197535 -0.25605765 0.2638717 0.4347602 0.07675112 0.40501216
-0.27843064 -0.16581422

bias f4 [2]
00000000: b6ac a53e eca8 993e
0.3235833 0.3001169

weight f4 [2, 2]
00000000: 0000 8c42 0000 8c42 0000 8c42 0000 8c42
70.0 70.0 70.0 70.0

bias f4 [2]
00000000: 420c 253e 5b3b bb3e
0.16117957 0.36568722

weight f4 [1, 2]
00000000: 24fc a6bc 4b44 26bc
-0.020383902 -0.010148118

weight f4 [4, 4]
00000000: 0000 8c42 0000 8c42 0000 8c42 0000 8c42
00000010: 0000 8c42 0000 8c42 0000 8c42 0000 8c42
00000020: 0000 8c42 0000 8c42 0000 8c42 0000 8c42
00000030: 0000 8c42 0000 8c42 0000 8c42 0000 8c42
70.0 70.0 70.0 70.0 70.0 70.0 70.0 70.0
70.0 70.0 70.0 70.0 70.0 70.0 70.0 70.0

bias f4 [4]
00000000: 8032 74bc 107e c0be 5296 b53e 2807 23be
-0.014904618 -0.37596178 0.35466248 -0.15920699

weight f4 [2, 4]
00000000: 88e0 0abe fcf8 ee3e e8ca cf3e 20e4 7dbd
00000010: f090 753d ea81 aa3e 14b5 1a3e e0f0 493d
-0.13562214 0.46674335 0.40584493 -0.061985135 0.059952676 0.33302242 0.15108138 0.049301982

bias f4 [2]
00000000: 78c2 e7bd e855 083e
-0.11316389 0.1331402

weight f4 [2, 2]
00000000: 0000 8c42 0000 8c42 0000 8c42 0000 8c42
70.0 70.0 70.0 70.0

bias f4 [2]
00000000: d391 8a3e 1741 93be
0.2706438 -0.28760597

weight f4 [1, 2]
00000000: 3f16 8e3e 5d49 183f
0.27751347 0.59486943
